experiments/COD_2.5e-05_swin_basic_cat_ganabp_REMOVE/models/12_1.139_discriminator.pth (torch, 467595 bytes, 25 tensors)

conv1.weight f4 [64, 4, 3, 3]
-0.024760433 0.0042666616 -0.15871894 -0.08174181 -0.028265571 0.03878092 -0.07005914 0.006682468
0.043719582 0.02753118 -0.11800727 0.06365934 0.08163655 0.0135878995 -0.101353414 0.14018567
-0.13718048 0.0436108 0.0910537 0.04703551 0.14478463 -0.027446764 -0.01884539 -0.11672837
-0.09614788 0.13645172 -0.04558916 -0.046721514 0.12409336 0.02836675 0.135104 -0.13477165
0.08194375 -0.07631243 -0.14974888 -0.11831603 -0.07101476 -0.05730002 0.10228732 -0.0045224456
0.052748345 0.078239664 0.12870668 -0.00012676304 0.1185848 -0.071257465 0.07277537 -0.12968811
-0.07800488 -0.005446546 -0.013347885 -0.026572626 -0.0149624795 0.056198243 0.09620655 -0.049637705
0.120478265 -0.11300928 -0.014652862 -0.14241447 -0.11593352 0.11713763 -0.024807358 0.088327244
0.1334789 0.017991064 0.09402261 -0.16028789 -0.029400915 0.16733511 0.07366674 0.064433046
-0.13915445 -0.103277765 0.069962054 -0.08453689 -0.10942852 -0.07297298 -0.11899366 0.079963006
-0.079455465 -0.06627031 0.11753429 -0.03164368 0.09384731 0.119525805 -0.019835148 -0.10068223
0.08478425 0.14574377 0.014362616 -0.06077677 -0.0013975108 0.07760933 0.05700632 0.060309272
-0.013049457 0.0711537 0.108306855 0.038379896 -0.053962197 0.057321418 -0.105244175 0.13569897
-0.057296537 -0.14126831 0.06265077 -0.038057502 -0.13346699 0.008731213 0.07512213 0.11170882
-0.103043474 0.13668187 0.14046197 -0.008489555 0.14902242 -0.13346237 0.14486784 -0.023855995
0.13109672 0.11867941 -0.06891748 0.08805963 0.031079922 -0.04562708 -0.13205995 0.002675816
0.13871428 -0.12453776 -0.16611902 0.01391111 -0.092804804 0.01692145 -0.11778998 -0.07992205
0.16145006 0.10496952 -0.07547454 0.041268293 0.08636876 -0.09379311 -0.108963 0.12344236
0.009738056 0.11078813 0.07077318 0.06596206 -0.06677695 -0.15823513 0.14597183 -0.026924469
-0.16374801 0.019240119 -0.1363723 -0.053993445 -0.06465329 0.053170387 -0.07516246 0.12577583
-0.037286475 0.16618109 0.023150116 -0.13383664 0.11390433 -0.05578688 0.14033113 0.15086108
-0.08240321 0.079842374 -0.03931906 0.09153293 -0.084506825 -0.16823515 0.121185884 -0.16496432
-0.16075286 -0.17054519 -0.10917877 0.15742257 0.039790697 0.085909165 -0.13045147 -0.11094057
-0.0024672062 -0.16218643 0.109533966 -0.09974049 0.15946409 0.07042217 -0.029547283 -0.029826293
0.13766338 -0.09501747 0.14193127 -0.086646885 -0.1509158 0.10817647 -0.018733848 -0.000413211
0.0026207315 -0.030990295 -0.11978059 0.01197662 0.01586049 -0.08762315 -0.12888488 0.053397473
0.096479416 0.084159374 0.06631284 0.15643698 -0.13880357 0.14432317 -0.11555119 0.040680416
-0.04380554 -0.13529247 0.031685118 -0.16290042 -0.09233665 -0.05753118 -0.08363407 -0.047726948
0.15241173 -0.08593397 0.050445 -0.13824761 0.062869295 -0.027815705 -0.16551417 0.1389698
0.16100988 -0.13101277 0.12239581 0.14943822 -0.06251321 -0.084056325 -0.103067875 -0.15154238
-0.068229325 0.027462048 0.108704455 0.063366376 -0.101338364 -0.02076691 -0.04042456 0.14707728
0.07206631 0.07815868 -0.07417651 0.058662474 -0.0096934065 0.0022430865 -0.090868965 0.16015944
00000000: 64d6 cabc 5acf 8b3b 3887 22be 4068 a7bd
00000010: 338d e7bc bed8 1e3d 2b7b 8fbd 9bf8 da3b
00000020: 4e13 333d 1289 e13c ccad f1bd d45f 823d
00000030: 1031 a73d c89f 5e3c 6192 cfbd d58c 0f3e
00000040: 0a79 0cbe 3da1 323d 5d7a ba3d 4fa8 403d
00000050: 6c42 143e 09d8 e0bc a661 9abc 490f efbd
00000060: 2ee9 c4bd 00ba 0b3e b3bb 3abd 0f5f 3fbd
00000070: a924 fe3d 6361 e83c b458 0a3e 9401 0abe
00000080: 20d2 a73d b149 9cbd c557 19be ad4f f2bd
00000090: 3070 91bd 6db3 6abd 047c d13d 0631 94bb
000000a0: a60e 583d 1e3c a03d afcb 033e b2eb 04b9
000000b0: 96dc f23d 6fef 91bd 410b 953d f6cc 04be
000000c0: 06c1 9fbd f078 b2bb 16b1 5abc d6ae d9bc
000000d0: 3025 75bc 2130 663d f107 c53d e850 4bbd
000000e0: 4fbd f63d 6971 e7bd 8f12 70bc 19d5 11be
000000f0: 8e6e edbd dbe5 ef3d cd38 cbbc eae4 b43d
00000100: b1ae 083e ff61 933c ed8e c03d 8222 24be
00000110: 30da f0bc e559 2b3e 96de 963d 79f5 833d
00000120: 817e 0ebe 4b83 d3bd 4448 8f3d ad21 adbd
00000130: 0f1c e0bd dc72 95bd f3b2 f3bd a5c3 a33d
00000140: 8cb9 a2bd bab8 87bd d1b5 f03d ce9c 01bd
00000150: 0533 c03d f2c9 f43d 527d a2bc 7c32 cebd
00000160: 5da3 ad3d db3d 153e 2e51 6b3c 10f1 78bd
00000170: ae2c b7ba a4f1 9e3d 767f 693d db06 773d
00000180: 64cd 55bc 08b9 913d fccf dd3d 3d34 1d3d
00000190: 7707 5dbd ddc9 6a3d 428a d7bd acf4 0a3e
000001a0: c6af 6abd a4a8 10be 0c4f 803d 2fe2 1bbd
000001b0: 92ab 08be 5d0d 0f3c a2d9 993d 98c7 e43d
000001c0: 7508 d3bd 55f6 0b3e 43d5 0f3e c617 0bbc
000001d0: 5599 183e 5caa 08be 3c58 143e a66d c3bc
000001e0: 383e 063e 310e f33d 9c24 8dbd 9b58 b43d
000001f0: 529b fe3c 76e3 3abd b93a 07be be5c 2f3b
00000200: 1e0b 0e3e a70d ffbd 1b1b 2abe 6deb 633c
00000210: 7210 bebd da9e 8a3c df3b f1bd 2cae a3bd
00000220: 2a53 253e 42fa d63d 6592 9abd f108 293d
00000230: 1be2 b03d 9a16 c0bd fe27 dfbd 59cf fc3d
00000240: 5e8c 1f3c e3e4 e23d 87f1 903d 1e17 873d
00000250: 5bc2 88bd 6408 22be a479 153e b490 dcbc
00000260: 8fad 27be 749d 9d3c 2ea5 0bbe 3b28 5dbd
00000270: f268 84bd 31c9 593d c7ee 99bd 61cb 003e
00000280: b4b9 18bd 602b 2a3e 50a5 bd3c 790c 09be
00000290: ac46 e93d c980 64bd f7b2 0f3e 547b 1a3e
000002a0: 04c3 a8bd 6684 a33d 060d 21bd 9e75 bb3d
000002b0: ea11 adbd d645 2cbe 4e30 f83d 68ec 28be
000002c0: 669c 24be 66a3 2ebe 1e99 dfbd 6233 213e
000002d0: 92fb 223d 25f1 af3d 1295 05be cf34 e3bd
000002e0: dab0 21bb 3314 26be 5853 e03d be44 ccbd
000002f0: 8e4a 233e 8039 903d 250d f2bc 4556 f4bc
00000300: a1f7 0c3e 8598 c2bd 6e56 113e ec73 b1bd
00000310: ac89 1abe a08b dd3d ba77 99bc 3ea4 d8b9
00000320: 94c0 2b3b 5cdf fdbc 874f f5bd 9639 443c
00000330: dced 813c c473 b3bd 66fa 03be 4fb7 5a3d
00000340: 0097 c53d c05b ac3d 07cf 873d 0431 203e
00000350: 8622 0ebe 74c9 133e 1aa6 ecbd 82a0 263d
00000360: 706d 33bd 1c8a 0abe 41c8 013d 5ecf 26be
00000370: ff1a bdbd d1a5 6bbd 5748 abbd 557d 43bd
00000380: d211 1c3e 26fe afbd 6b9f 4e3d c890 0dbe
00000390: 9ec1 803d c3dd e3bc 8c7c 29be 194e 0e3e
000003a0: c6df 243e 3628 06be a8aa fa3d 5506 193e
000003b0: ed06 80bd b925 acbd 4015 d3bd ed2d 1bbe
000003c0: d1bb 8bbd 17f8 e03c 71a0 de3d 3bc6 813d
000003d0: 7d8a cfbd 5e1f aabc 3994 25bd 6d9b 163e
000003e0: 8097 933d a811 a03d dbe9 97bd 1048 703d
000003f0: 18d1 1ebc bf00 133b 8219 babd d600 243e

conv1.bias f4 [64]
-0.014534689 -0.15206783 0.077589534 -0.039193224 -0.07768061 0.09418438 -0.062021255 0.045628592
0.06831241 -0.020398196 0.09732579 -0.122727826 -0.12372945 0.004422953 -0.000664866 -0.06712641
-0.04019901 0.15216234 0.027280916 -0.07818424 0.02966478 -0.071538314 0.15977372 -0.097092114
-0.14459418 -0.062014192 0.0069513097 -0.06605575 0.11141672 -0.042867493 0.036360074 -0.0390066
-0.035202764 0.0763234 -0.13061474 0.034645315 0.03644756 -0.0090318555 0.12683539 0.069103956
0.11729858 0.06370533 0.1503407 -0.0040485845 -0.08259547 -0.091194585 -0.1159036 0.09277426
0.012880295 -0.11011111 0.0721481 0.10196099 -0.025510289 -0.0062816143 0.058544185 -0.06704076
0.11427285 0.07819082 0.017161341 0.03724826 -0.0059776152 0.09078581 0.0019574661 0.15567036
00000000: e722 6ebc abb7 1bbe 43e7 9e3d 1389 20bd
00000010: 0317 9fbd bde3 c03d 000a 7ebd 0ce5 3a3d
00000020: 60e7 8b3d 1e1a a7bc be52 c73d ba58 fbbd
00000030: de65 fdbd 6bee 903b 674a 2eba 9279 89bd
00000040: b8a7 24bd 72d0 1b3e 3a7c df3c 0f1f a0bd
00000050: 8d03 f33c ae82 92bd b99b 233e 3bd8 c6bd
00000060: 7f10 14be 9802 7ebd d0c7 e33b 3d48 87bd
00000070: 732e e43d d395 2fbd 4dee 143d 62c5 1fbd
00000080: c630 10bd 714f 9c3d dfbf 05be 3fe8 0d3d
00000090: 094a 153d 59fa 13bc 23e1 013e 6086 8d3d
000000a0: 3d3a f03d f177 823d eaf2 193e fda9 84bb
000000b0: d027 a9bd 3ac4 babd de5e edbd 6e00 be3d
000000c0: df07 533c ef81 e1bd 62c2 933d ecd0 d03d
000000d0: f4fa d0bc 00d6 cdbb 07cc 6f3d aa4c 89bd
000000e0: e207 ea3d 8222 a03d f195 8c3c a291 183d
000000f0: dfdf c3bb e9ed b93d d548 003b 0d68 1f3e

conv2.weight f4 [64, 64, 3, 3]
0.002401308 0.011094468 0.035871025 -0.01821224 0.016003856 -0.018859874 0.017855199 0.038242713
-0.03817721 0.030023336 0.006281982 -0.012701856 0.008166658 -0.025497472 0.00915605 -0.023792675
0.025652073 -0.019925766 -0.0032881468 0.0009703802 0.016847663 -0.026679683 0.025599934 -0.009912521
0.021027317 0.004155581 0.014693281 0.008253218 -0.024892973 -0.028696666 0.008082591 0.026525998
-0.0107571175 -0.020738373 -0.04239237 0.02243962 0.03226785 -0.01428215 -0.02435418 0.009375012
0.03068317 0.0228834 0.025108358 0.013872623 0.02564389 0.018288832 -0.038768224 -0.04101162
0.005535813 0.013032214 0.031453107 0.008306306 -0.025298446 0.0069774687 -0.0038597586 0.005594147
0.026825765 -0.004523007 -0.026020257 0.037512165 -0.029840754 0.008614772 0.010958383 -0.03457483
0.038603406 0.011508543 0.013872978 -0.009224169 -0.019875307 0.015373289 -0.0014536348 -0.003489751
0.002293773 -0.045349706 -0.023361247 0.02594872 0.0051805973 0.018184114 -0.0045621498 -0.031974316
0.01615175 0.0060331053 -0.031206248 -0.031832047 -0.042197186 -0.020457199 0.009324093 -0.021402923
0.0046547703 -0.012610521 -0.0035750917 -0.043900434 0.0048447493 0.036907073 -0.043577153 -0.009024789
0.019299736 0.027770728 -0.03915022 0.028662054 -0.014094082 -0.008034302 -0.04352898 -0.004380473
0.01884331 0.012872495 -0.030672738 0.026426842 0.039736066 -0.025281863 -0.017669527 -0.0049428344
0.014137917 0.011668122 0.039332632 0.0027430267 0.02989798 0.037127644 0.0090785045 0.029601332
0.001926045 0.008641262 -0.021672046 0.027027512 -0.008557386 -0.0067619956 -0.012934284 0.01822005
0.003362186 0.0067219273 0.033710565 -0.02959514 -0.010845464 0.035029534 -0.0017773554 -0.029660381
0.0026107368 0.022437556 0.03304527 0.012293809 0.027219284 -0.00074229576 -0.03903938 -0.01057824
0.026599519 -0.03271293 0.023029976 -0.034544792 0.005608254 -0.022895806 0.0034919488 -0.004692797
-0.028069992 0.035143442 0.012940419 -0.018618822 0.0024622409 -0.005505048 0.021924485 -0.0013717703
0.03756422 0.016627163 -0.029659227 -0.026669357 0.009141938 -0.014743968 -0.02385783 -0.029003264
0.038493708 0.038565114 0.011783956 -0.005184427 -0.03247336 0.00081679993 -0.02984364 0.02192839
0.01958461 -0.03809952 0.019672768 0.004667096 0.03424355 -0.03579424 -0.015982931 0.0089083025
0.03222247 0.031429984 0.0064747636 0.01339416 0.032199405 0.02126237 -0.012882799 -0.01669216
0.011283351 0.01607145 0.002981392 0.020370778 0.040976476 -0.004649835 -0.016700292 0.015684353
-0.041788813 -0.0040454827 -0.022074465 0.03446006 -0.03404305 0.013103492 -0.030575544 -0.012030833
-0.031226372 0.01553428 -0.013827153 -0.04109945 0.005016122 -0.033714544 -0.010368642 -0.04371802
-0.012366241 -0.0028704642 -0.032584164 0.019303013 -0.0054052374 -0.0070316135 -0.03767147 0.006981558
-0.01784348 -0.031807926 -0.0066750157 0.0136241065 -0.01505975 -0.017304592 0.01221746 -0.017663125
-0.023039438 0.01467197 -0.035714254 0.038637422 -0.036275763 0.00023822403 0.027493298 0.041650634
0.0052106325 0.014489978 -0.02704138 -0.04401613 -0.04243777 0.024517389 -0.015847072 0.018046962
-0.011389303 -0.017919391 -0.009063679 -0.025179818 -0.040724356 0.0017875431 -0.026695073 -0.027400974
00000000: 435f 1d3b 92c5 353c 7fed 123d d631 95bc
00000010: 851a 833c 0680 9abc 1145 923c 64a4 1c3d
00000020: b55f 1cbd 80f3 f53c 16d9 cd3b 721b 50bc
00000030: 72cd 053c 13e0 d0bc 4203 163c dbe8 c2bc
00000040: 4c24 d23c 5c3b a3bc f37d 57bb 1d61 7e3a
00000050: 1c04 8a3c 5a8f dabc f4b6 d13c 2068 22bc
00000060: 7b41 ac3c 8a2b 883b 16bc 703c 8138 073c
00000070: 59ec cbbc 4515 ebbc d86c 043c 0d4d d93c
00000080: 9f3e 30bc 85e3 a9bc 9fa3 2dbd 4bd3 b73c
00000090: 4b2b 043d aeff 69bc 6b82 c7bc a699 193c
000000a0: 455b fb3c f875 bb3c 0bb0 cd3c 004a 633c
000000b0: 2313 d23c 76d2 953c 6ecb 1ebd cdfb 27bd
000000c0: c465 b53b 1185 553c f9d4 003d 2c17 083c
000000d0: b03e cfbc 40a3 e43b 01f4 7cbb 1b4f b73b
000000e0: b5c1 db3c bc35 94bb 6f28 d5bc 5ba6 193d
000000f0: 9974 f4bc f924 0d3c ca8a 333c 569e 0dbd
00000100: 9b1e 1e3d 548e 3c3c 7d4b 633c f820 17bc
00000110: 8ad1 a2bc 3fe0 7b3c e487 beba 4eb4 64bb
00000120: 2053 163b 9dc0 39bd 1660 bfbc 6992 d43c
00000130: 00c2 a93b daf6 943c 167e 95bb 80f7 02bd
00000140: ad50 843c 5bb1 c53b 3fa4 ffbc 5262 02bd
00000150: f5d6 2cbd db95 a7bc 15c4 183c 2f55 afbc
00000160: 0b87 983b 5c9c 4ebc 164c 6abb f1d0 33bd
00000170: b4c0 9e3b df2b 173d f57d 32bd b5dc 13bc
00000180: 7b1a 9e3c 707f e33c fb5b 20bd afcc ea3c
00000190: ddea 66bc 4ea2 03bc 724b 32bd 128a 8fbb
000001a0: 495d 9a3c 28e7 523c 6545 fbbc 1b7d d83c
000001b0: 49c2 223d e91b cfbc afbf 90bc 80f7 a1bb
000001c0: b9a2 673c a72b 3f3c 411b 213d 5ac4 333b
000001d0: 9cec f43c 2813 183d 02be 143c 7e7e f23c
000001e0: 5973 fc3a 1494 0d3c 9389 b1bc cd68 dd3c
000001f0: 4734 0cbc bb93 ddbb 52ea 53bc 3742 953c
00000200: 1f58 5c3b 9d43 dc3b 1714 0a3d 8271 f2bc
00000210: 2cb1 31bc 217b 0f3d 27f6 e8ba 54fa f2bc
00000220: e518 2b3b f7ce b73c 7a5a 073d f96b 493c
00000230: fafa de3c a096 42ba c2e7 1fbd 5b50 2dbc
00000240: 3ce7 d93c fefd 05bd 5ca9 bc3c d77e 0dbd
00000250: 72c5 b73b fc8f bbbc 2ed9 643b 09c6 99bb
00000260: 0af3 e5bc 92f2 0f3d 0d04 543c 8086 98bc
00000270: 8c5d 213b b163 b4bb fa9a b33c f9cc b3ba
00000280: f1dc 193d b035 883c e8f7 f2bc b279 dabc
00000290: 11c8 153c af90 71bc 7f71 c3bc 4198 edbc
000002a0: 94ab 1d3d 74f6 1d3d 7e11 413c 20e2 a9bb
000002b0: c902 05bd 841e 563a a67a f4bc 2ba3 b33c
000002c0: e76f a03c 3e0e 1cbd c928 a13c 70ee 983b
000002d0: f742 0c3d fb9c 12bd a3ee 82bc 21f4 113c
000002e0: b5fb 033d babc 003d 412a d43b 2e73 5b3c
000002f0: 86e3 033d 6c2e ae3c 6012 53bc ffbd 88bc
00000300: cedd 383c 46a8 833c 7563 433b 9ee0 a63c
00000310: f3d6 273d a55d 98bb 0dcf 88bc 797c 803c
00000320: bf2a 2bbd f88f 84bb 82d5 b4bc fe25 0d3d
00000330: ba70 0bbd 07b0 563c 9079 fabc f91c 45bc
00000340: 73ce ffbc 7e83 7e3c 488b 62bc e657 28bd
00000350: 485e a43b 4318 0abd 3de1 29bc ab11 33bd
00000360: c69b 4abc 661e 3cbb f976 05bd 5a21 9e3c
00000370: 6b1e b1bb 7369 e6bb 664d 1abd 8ec5 e43b
00000380: 7d2c 92bc 0749 02bd 17ba dabb a537 5f3c
00000390: 2bbd 76bc 5cc2 8dbc be2b 483c 42b2 90bc
000003a0: 34bd bcbc b462 703c 1c49 12bd 4642 1e3d
000003b0: e595 14bd c7cb 7939 a039 e13c db99 2a3d
000003c0: f4bd aa3b 5f67 6d3c e285 ddbc 424a 34bd
000003d0: 3ad3 2dbd b1d8 c83c b8d1 81bc 39d7 933c
000003e0: 339a 3abc b0cb 92bc d37f 14bc e845 cebc
000003f0: 95ce 26bd fe4b ea3a a0af dabc 0278 e0bc

conv2.bias f4 [64]
0.020350434 -0.019922342 -0.01168715 0.021062845 0.017605076 0.009166665 -0.031486943 -9.7606724e-05
0.027089385 0.025364753 -0.040909506 0.013481178 0.005523628 0.008346379 -0.025751872 -0.030040406
-0.033696614 -0.009233828 0.030120188 -0.0024877798 -0.0075214785 0.0036247293 -0.029132495 0.0027963808
-0.027825199 -0.04068758 -0.0070499126 0.010012275 -0.009304299 0.01283481 -0.013088718 -0.035629395
-0.016259674 0.030352063 -0.0090276 -0.023872714 0.035140727 -0.041056197 -0.023127787 -0.0090002725
0.0037880058 -0.0009827834 0.026927551 4.1653857e-05 -0.008768735 0.012159179 0.03514865 -0.026637929
0.03615673 0.00801548 -0.032184634 -0.008425186 -0.020545961 0.023509046 0.038191162 -0.0014501541
0.038927566 0.008808311 0.03256285 0.006602608 0.026215523 -0.024690334 0.019709088 -0.017075317
00000000: f4b5 a63c 2e34 a3bc 767b 3fbc fd8b ac3c
00000010: 8538 903c c82f 163c 74f8 00bd 36b2 ccb8
00000020: 8fea dd3c bec9 cf3c ba90 27bd 29e0 5c3c
00000030: 8dff b43b 40bf 083c 97f5 d2bc 4c17 f6bc
00000040: 7605 0abd 7b49 17bc 9dbe f63c 050a 23bb
00000050: bc76 f6bb de8c 6d3b 45a7 eebc 7c43 373b
00000060: acf1 e3bc 05a8 26bd f402 e7bb 860a 243c
00000070: 0f71 18bc 1849 523c 1072 56bc 21f0 11bd
00000080: 0233 85bc e4a4 f83c 80e8 13bc b690 c3bc
00000090: b9ef 0f3d 8b2a 28bd 7c76 bdbc e175 13bc
000000a0: 3140 783b bdd0 80ba 2b97 dc3c 7db5 2e38
000000b0: beaa 0fbc 4b37 473c 08f8 0f3d c937 dabc
000000c0: 1419 143d 5c53 033c 09d4 03bd cb09 0abc
000000d0: 0150 a8bc 0b96 c03c 566e 1c3d 1913 beba
000000e0: 8372 1f3d bc50 103c 9f60 053d b15a d83b
000000f0: f0c1 d63c 6243 cabc f474 a13c 89e1 8bbc

conv3.weight f4 [64, 64, 3, 3]
0.008812887 -0.019948063 0.002534579 -0.0214424 -0.015898887 -0.016246242 0.027612062 -0.010753711
-0.039944436 -0.00018857684 0.03707574 -0.02307288 -0.03183603 -0.042722404 -0.026589014 0.00037319344
-0.01961135 -0.00813095 0.010846846 0.011485377 0.03634084 -0.020089177 0.019365853 -0.041336898
0.040657036 -0.0036745786 0.03550914 0.023582052 -0.0050279996 -0.028039115 0.037257414 0.030484768
-0.026469419 -0.020250129 -0.015554465 0.01361607 -0.02329944 0.040224556 -0.0028536317 3.1128736e-06
-0.010088664 0.02642652 0.0044287154 0.013550788 0.025439898 -0.034295984 0.0301816 -0.011937735
-0.032292794 0.019000757 0.026857574 0.0020301824 0.00018088582 -0.0014423449 0.006106355 0.020993698
-0.01946532 -0.008750855 0.028289469 0.0006875367 -0.025578251 -0.03586577 0.020468503 -0.036853496
0.027204636 -0.007932105 -0.03715884 -0.028809907 -0.0030192668 -0.0077159624 -0.039448284 -0.024140283
0.005470239 0.0033378361 -0.041004546 0.002543718 -0.032375783 -0.031237239 0.021160908 -0.0033075127
0.036173467 0.012385549 -0.032524765 0.0073914905 0.0004898832 0.017806515 0.020227298 -0.013467209
-0.018468153 -0.023258766 0.033156306 0.0305827 0.030476155 -0.0054203663 -0.034476787 0.021118313
-0.0049101124 0.027244274 0.02810834 -0.024629999 0.017971864 -0.039977908 -0.00058417715 0.0062754354
0.0076343734 0.03308648 0.006386122 -0.023300037 -0.03232129 0.0040887557 0.01918414 0.04121438
-0.024867732 0.025647465 0.012431687 -0.0016109468 -0.006550544 -0.006431922 -0.0318312 0.022523878
-0.0040115216 -0.020859933 -0.016781466 0.006691652 0.035320003 -0.028751511 -0.011130248 0.04164781
-0.006122189 0.027815666 0.021966022 -0.018131502 -0.0153316995 0.0015715987 0.015541924 -0.033757925
-0.029015252 -0.019337 0.008121481 -0.04153342 0.026155995 0.00065809896 0.021048378 -0.00016783772
-0.019847745 0.016477428 -0.031739 0.029326595 -0.0033027246 -0.0325893 0.03013285 -0.042787604
-0.023557536 0.022953857 0.018071195 0.024712084 -0.0025522143 -0.013057418 0.011122905 0.021151489
0.03914337 0.020417286 0.026983742 -0.0154660465 -0.023955047 -0.010525586 0.009111006 -0.0023590298
0.028411815 0.019254092 -0.005563383 0.018345969 0.038237445 -0.030553896 -0.024141224 -0.040908266
0.0022353048 -0.014675737 0.018478543 0.03467768 -0.007863154 -0.03126348 -0.033814076 -0.010436746
0.04015858 0.03733187 -0.030897804 0.022979286 -0.04129541 -0.03827089 0.036308147 -0.017023686
-0.021007545 -0.0130353365 -0.010843184 -0.01354701 0.014948129 0.041236266 -0.031365518 0.025150008
-0.029247556 0.0025541508 0.029884294 -0.026815277 -0.0381422 -0.007792941 0.0035740244 0.012805877
0.007663648 0.010883229 0.01339785 -0.034075312 -0.03411095 -0.0056625614 -0.0053606606 -0.025224473
0.022973912 -0.030104907 0.017595455 -0.0237558 -0.01993928 -0.024713974 -0.021375611 -0.037265275
-0.019907884 0.016312305 -0.014827661 0.038268127 -0.03307638 -0.02240288 -0.019470284 0.030649768
-0.0014602443 0.030051148 0.03522294 -0.007419063 0.036845684 0.032380633 -0.007640838 -0.019646408
-0.010741234 -0.028540539 0.01817101 0.022475054 0.032949504 0.008007419 0.01775156 -0.03235476
-0.009042003 0.019101199 0.034472298 0.013322813 0.031947806 -0.04026177 -0.031053793 0.009298062
00000000: ed63 103c 1f6a a3bc 2e1b 263b f9a7 afbc
00000010: 623e 82bc d716 85bc b132 e23c 5530 30bc
00000020: c79c 23bd b6bc 45b9 bbdc 173d 5603 bdbc
00000030: 7f66 02bd b0fd 2ebd 34d1 d9bc 2da9 c339
00000040: fba7 a0bc ad37 05bc f8b6 313c 2a2d 3c3c
00000050: 22da 143d 0f92 a4bc 23a5 9e3c e150 29bd
00000060: fe87 263d 33d1 70bb 0872 113d 262f c13c
00000070: ebc1 a4bb 49b2 e5bc 3b9b 183d 31bb f93c
00000080: 65d6 d8bc 99e3 a5bc 28d8 7ebc f015 5f3c
00000090: 78de bebc 81c2 243d ff03 3bbb c3e6 5036
000000a0: ec4a 25bc 6e7c d83c c21e 913b 2004 5e3c
000000b0: 5567 d03c f279 0cbd 673f f73c 7d96 43bc
000000c0: 7345 04bd 7aa7 9b3c 6a04 dc3c cf0c 053b
000000d0: 2bac 3d39 100d bdba d217 c83b fafa ab3c
000000e0: bc75 9fbc bf5f 0fbc 51bf e73c cf3b 343a
000000f0: 7b89 d1bc fce7 12bd 90ad a73c b1f3 16bd
00000100: 42dc de3c a9f5 01bc de33 18bd c102 ecbc
00000110: e4de 45bb 2fd6 fcbb 8694 21bd d8c1 c5bc
00000120: b13f b33b 99bf 5a3b 62f4 27bd 82b4 263b
00000130: 789c 04bd 3de5 ffbc a459 ad3c dbc2 58bb
00000140: a12a 143d c2ec 4a3c b038 05bd 5134 f23b
00000150: 816b 003a f8de 913c b8b3 a53c 92a5 5cbc
00000160: 864a 97bc 2b89 bebc e8ce 073d 9288 fa3c
00000170: 21a9 f93c 549d b1bb 8837 0dbd 5000 ad3c
00000180: 02e5 a0bb 622f df3c 7643 e63c dac4 c9bc
00000190: bb39 933c e0bf 23bd 7723 19ba 2ba2 cd3b
000001a0: c429 fa3b b085 073d ad42 d13b b8df bebc
000001b0: 5463 04bd f8fa 853b 0f28 9d3c 69d0 283d
000001c0: 6ab7 cbbc a21a d23c 46ae 4b3c 6826 d3ba
000001d0: f2a5 d6bb dfc2 d2bb 6f61 02bd ff83 b83c
000001e0: 1573 83bb 73e2 aabc 4979 89bc a545 db3b
000001f0: b5ab 103d 4a88 ebbc a55b 36bc e596 2a3d
00000200: a59c c8bb aedd e33c 16f2 b33c 8488 94bc
00000210: cf31 7bbc 1afe cd3a 8ea3 7e3c c045 0abd
00000220: 65b1 edbc a168 9ebc f60f 053c f31e 2abd
00000230: 1945 d63c 4684 2c3a a66d ac3c 98fd 2fb9
00000240: bd97 a2bc acfb 863c c100 02bd 543e f03c
00000250: 8672 58bb 5c7c 05bd 2bd9 f63c 0e42 2fbd
00000260: bcfb c0bc ba09 bc3c 0b0a 943c ff70 ca3c
00000270: 0d43 27bb c8ee 55bc d83c 363c e345 ad3c
00000280: cc54 203d 2742 a73c 020d dd3c 4d65 7dbc
00000290: 603d c4bc 8273 2cbc 5446 153c f499 1abb
000002a0: e5bf e83c c2ba 9d3c 0a4d b6bb 494a 963c
000002b0: de9e 1c3d 2a4c fabc d1c3 c5bc 6d8f 27bd
000002c0: 317e 123b 8172 70bc 5060 973c 2f0a 0e3d
000002d0: 75d4 00bc 230e 00bd a180 0abd e3fe 2abc
000002e0: 537d 243d 4ee9 183d 641d fdbc 0e3f bc3c
000002f0: 6025 29bd f0c1 1cbd dab7 143d 4275 8bbc
00000300: 0418 acbc 2a92 55bc 9ca7 31bc 47f4 5dbc
00000310: ffe8 743c 5ce7 283d 2179 00bd 6407 ce3c
00000320: 9298 efbc 8a63 273b e8cf f43c b6ab dbbc
00000330: ff3a 1cbd ed5b ffbb 2e3a 6a3b becf 513c
00000340: 571f fb3b 924f 323c a882 5b3c 8e92 0bbd
00000350: ecb7 0bbd 028d b9bb 7ba8 afbb 8ea3 cebc
00000360: c933 bc3c 919e f6bc 5824 903c 869b c2bc
00000370: b357 a3bc f674 cabc e81b afbc 79a3 18bd
00000380: dc15 a3bc 62a1 853c b8ef 72bc 0abf 1c3d
00000390: 197b 07bd 3f86 b7bc 2580 9fbc 3915 fb3c
000003a0: ab65 bfba d32d f63c ee45 103d 9c1b f3bb
000003b0: 80eb 163d 8ea1 043d ff5f fabb 81f1 a0bc
000003c0: 00fc 2fbc d9cd e9bc 5fdb 943c 9b1d b83c
000003d0: 0ff6 063d 8d31 033c b86b 913c 6d86 04bd
000003e0: e924 14bc 1e7a 9c3c d332 0d3d ee47 5a3c
000003f0: b4db 023d 87e9 24bd 8664 febc e656 183c

conv3.bias f4 [64]
0.04086471 0.036468193 0.039227147 0.033835493 -0.018622814 0.00046608734 0.015682487 -0.0013655312
0.006032005 -0.005046064 -0.003661631 -0.03642151 -0.01454576 0.04021737 -0.03210574 -0.03000501
-0.0008442457 0.01445144 -0.017512076 0.0007353687 -0.029812591 -0.021547686 -0.0049019554 0.007619206
0.0020938509 0.03993003 -0.019539086 0.017998062 0.02796236 -0.019107606 0.0231842 -0.0035765443
-0.006791914 0.025801992 -0.019037716 -0.009750437 0.039322674 0.02658673 -0.017959666 -0.0056102173
0.008962148 -0.021623895 0.031081516 0.032140087 -0.04154566 -0.015997931 -0.009385292 0.018308477
-0.038546074 0.015632858 0.028950654 0.021707963 -0.0066656074 -0.0055001876 0.030349644 -0.012772345
0.02743295 0.0053550825 0.018979408 -0.027502313 0.013250838 -0.016562913 0.021252092 -0.0052845906
00000000: c161 273d ac5f 153d a5ac 203d 1697 0a3d
00000010: df8e 98bc 2f5d f439 8f78 803c a0fb b2ba
00000020: 20a8 c53b 7459 a5bb f9f7 6fbb b92e 15bd
00000030: 5751 6ebc f8ba 243d 4f81 03bd 11cd f5bc
00000040: 5f50 5dba bcc5 6c3c 7c75 8fbc c2c5 403a
00000050: 8939 f4bc c684 b0bc 95a0 a0bb 88aa f93b
00000060: fd38 093b ac8d 233d 6f10 a0bc ac70 933c
00000070: 5211 e53c 8e87 9cbc cbec bd3c 7564 6abb
00000080: b48e debb b35e d33c fcf4 9bbc 4cc0 1fbc
00000090: d010 213d 6acc d93c 2620 93bc ead5 b7bb
000000a0: f9d5 123c 9824 b1bc aa9e fe3c 53a5 033d
000000b0: c82b 2abd 180e 83bc c5c4 19bc a9fb 953c
000000c0: 7de2 1dbd 7b10 803c ec29 ed3c e6d4 b13c
000000d0: 2b6b dabb eb3a b4bb d19f f83c 1943 51bc
000000e0: 11bb e03c b079 af3b b47a 9b3c 884c e1bc
000000f0: 0b1a 593c f2ae 87bc de18 ae3c 5c2a adbb

conv4.weight f4 [64, 64, 3, 3]
-0.0071423254 0.009254259 0.032236718 0.010944958 0.018423347 0.029796405 0.0045122984 0.023276698
-0.012520108 -0.0034891749 0.021583598 -0.007969045 -0.02125402 -0.030085975 0.03283774 -0.020263974
0.033335518 -0.0044535147 -0.0049451604 0.0042628567 0.037145305 -0.012780064 0.0057817423 0.019853288
0.023221929 -0.038798705 -0.03582778 0.016461268 0.02420087 -0.004532514 0.029321471 -0.008511243
0.014687453 0.01467767 -0.016740538 0.004055669 0.00097533147 0.014611794 0.004514109 0.006975286
0.021298004 -0.033465974 0.017308017 0.016563967 -0.039997708 0.0002553147 -0.0108346315 -0.0074821888
0.011552273 0.004335815 0.016933229 0.00749235 0.0123104295 -0.019696636 -0.030967293 -0.012210795
-0.008655211 0.002551749 -0.019079925 -0.030097935 0.00015950586 -0.0201546 -0.039200388 0.029795147
0.013866755 0.017136944 -0.027445257 0.026395733 -0.006593404 0.0044471207 0.036084052 0.03603384
0.040952917 0.0072625955 0.012904675 -0.019547276 -0.03421157 0.008509529 0.027274894 -0.027892353
-0.0364949 0.0376169 -0.04067017 -0.018961763 -0.015163344 0.0045331186 -0.029607765 0.037918966
-0.029274104 0.015575664 -0.037819684 0.01122537 -0.009900746 -0.007795813 -0.0348042 0.0067608254
-0.023706906 -0.03404321 -0.028866265 -0.0076106926 0.01454952 -0.03345501 0.008534 0.027178505
-0.024363404 -0.017116193 0.028258674 -0.040992435 -0.033139702 -0.0014106135 0.02561923 -0.019604618
-0.029233823 0.012442482 0.00747355 0.0014576683 0.036387704 0.002549207 -0.03738442 -0.037032366
0.016650323 0.03501557 -0.009010499 0.009779705 0.012689134 -0.029513482 -0.009509183 -0.0075490894
0.0350635 0.0011532867 -0.016993018 -0.040180758 -0.010547779 -0.03259848 -0.012143626 0.04059795
0.018961536 0.0019413196 0.0024073548 0.028540256 -0.029326575 0.036547195 0.003804539 -0.021221558
0.008484362 -0.0048421784 -0.018423144 -0.04311009 -0.033442784 0.026508182 0.034629587 -0.010004716
0.021252738 0.035991672 0.012928065 0.012369363 0.034365766 0.026603796 -0.037121724 0.039999478
0.022375453 -0.010053236 0.013258679 0.03352707 -0.011624824 0.007386014 -0.040139005 0.016832773
0.004205789 0.037944272 -0.039774187 -0.0017734776 -0.013578133 -0.04386506 0.039354384 -0.03616418
-0.049367823 0.044268645 0.026845226 -0.00456151 0.017473983 -0.019485572 -0.023787878 -0.022938639
0.018272528 0.015881734 0.0040234164 0.023161251 0.026014484 0.036664743 0.011522407 0.028652161
0.03254001 0.01754219 -0.024931826 -0.033357255 -0.016123157 0.012823199 0.03578737 0.0074117836
0.039733786 0.030180471 0.034208067 -0.014185776 -0.0037142953 0.0165096 0.010790076 0.029093195
0.03746972 0.0056368355 -0.0136908265 -0.039828844 0.013650317 0.018651946 -0.0015083004 0.00879645
-0.003717184 -0.0266485 0.0061692228 -0.035058983 -0.014333344 -0.017969487 -0.038658936 -0.012962856
-0.003190352 -0.01773388 0.026976582 -0.03802707 -0.0027272028 0.016310636 0.026277246 -0.03466896
-0.038509727 -0.04318299 0.01054102 0.0006590529 -0.0015593038 -0.0016173598 0.0065109255 0.008893352
-0.013671785 -0.02512396 -0.02220629 0.027821783 -0.013570512 -0.03182629 0.00020106751 0.04028622
-0.0044717314 0.0038915486 0.001226568 0.00705009 -0.00911098 -0.013448694 -0.014828041 -0.006164895
00000000: 2b0a eabb 2d9f 173c a60a 043d 7b52 333c
00000010: 8fec 963c 9717 f43c e7db 933b c6ae be3c
00000020: 2421 4dbc a4aa 64bb 16d0 b03c 9990 02bc
00000030: e91c aebc dd76 f6bc de80 063d a200 a6bc
00000040: d38a 083d caee 91bb 030b a2bb 6faf 8b3b
00000050: ad25 183d 7963 51bc c574 bd3b 5da3 a23c
00000060: ea3b be3c 64eb 1ebd 26c0 12bd c8d9 863c
00000070: e740 c63c 7c85 94bb 9533 f03c be72 0bbc
00000080: a5a3 703c 9c7a 703c 7423 89bc 6be5 843b
00000090: 63ad 7f3a 4e66 6f3c 17eb 933b f190 e43b
000000a0: 2779 ae3c 9e13 09bd 8bc9 8d3c 28b1 873c
000000b0: a3d4 23bd c2db 8539 bd83 31bc 262d f5bb
000000c0: bf45 3d3c 7413 8e3b 8eb7 8a3c 6382 f53b
000000d0: afb1 493c d75a a1bc 1faf fdbc c90f 48bc
000000e0: 96ce 0dbc 3f3b 273b 814d 9cbc f28f f6bc
000000f0: 0741 2739 421b a5bc 9690 20bd f414 f43c
00000100: 6331 633c c762 8c3c e0d4 e0bc dd3b d83c
00000110: 7b0d d8bb 27b9 913b dfcc 133d 3898 133d
00000120: 3fbe 273d 11fb ed3b 216e 533c 9c21 a0bc
00000130: 6e21 0cbd 8d6b 0b3c 996f df3c 817e e4bc
00000140: ad7b 15bd 2e14 1a3d c495 26bd b355 9bbc
00000150: ad6f 78bc 8e8a 943b fc8b f2bc eb50 1b3d
00000160: 3fd0 efbc 1231 7f3c d0e8 1abd 9dea 373c
00000170: bd36 22bc 0574 ffbb d98e 0ebd ea89 dd3b
00000180: fc34 c2bc e570 0bbd f278 ecbc 1e63 f9bb
00000190: 1c61 6e3c 1f08 09bd 31d2 0b3c 75a5 de3c
000001a0: c395 c7bc 4237 8cbc bc7e e73c afe7 27bd
000001b0: 7fbd 07bd 56e4 b8ba 6bdf d13c dd99 a0bc
000001c0: c57b efbc 8ddb 4b3c aee4 f43b 3b0f bf3a
000001d0: 460b 153d 9910 273b 6820 19bd 40af 17bd
000001e0: 4266 883c 7d6c 0f3d c6a0 13bc 0e3b 203c
000001f0: 16e6 4f3c 42c6 f1bc 67cc 1bbc 5a5e f7bb
00000200: bf9e 0f3d e129 973a f134 8bbc 9494 24bd
00000210: 97d0 2cbc fc85 05bd 0ff6 46bc 094a 263d
00000220: 3955 9b3c e073 fe3a b6c4 1d3b 41cd e93c
00000230: 493e f0bc 83b2 153d 9355 793b d5d8 adbc
00000240: fe01 0b3c 23ab 9ebb 22ec 96bc 3594 30bd
00000250: 4dfb 08bd b027 d93c c1d7 0d3d d2ea 23bc
00000260: 391a ae3c 016c 133d 3cd0 533c dea8 4a3c
00000270: 1ec3 0c3d 34f0 d93c f30c 18bd 7ed6 233d
00000280: ba4c b73c 54b6 24bc ee3a 593c ae53 093d
00000290: 0c76 3ebc 6006 f23b cc68 24bd e2e4 893c
000002a0: b7d0 893b 746b 1b3d 42ea 22bd 0974 e8ba
000002b0: d176 5ebc d9ab 33bd 1032 213d e420 14bd
000002c0: ea35 4abd 0a53 353d 85ea db3c b878 95bb
000002d0: 9925 8f3c 35a0 9fbc ccde c2bc d0e9 bbbc
000002e0: 45b0 953c 691a 823c ddd6 833b aabc bd3c
000002f0: 541c d53c c52d 163d 7ac8 3c3c f0b7 ea3c
00000300: ac48 053d a4b4 8f3c d43d ccbc 9ea1 08bd
00000310: b614 84bc 6518 523c c795 123d 8cde f23b
00000320: e5bf 223d 093d f73c c21d 0c3d 756b 68bc
00000330: 896b 73bb 243f 873c dcc8 303c da54 ee3c
00000340: d979 193d 34b5 b83b 7d4f 60bc 9223 23bd
00000350: 94a5 5f3c f7cb 983c 2ab2 c5ba fc1e 103c
00000360: 009c 73bb f44d dabc 3127 ca3b 029a 0fbd
00000370: 67d6 6abc bf34 93bc d558 1ebd 2962 54bc
00000380: 3a15 51bb a446 91bc fefd dc3c 46c2 1bbd
00000390: dfba 32bb e29d 853c 6143 d73c 0a01 0ebd
000003a0: 60bc 1dbd a6e0 30bd 3eb4 2c3c 4bc4 2c3a
000003b0: 8e61 ccba 97fd d3ba 9a59 d53b 6cb5 113c
000003c0: 9fff 5fbc c3d0 cdbc f7e9 b5bc 82ea e33c
000003d0: da56 5ebc 495c 02bd a6d5 5239 2a03 253d
000003e0: 9a87 92bb 5a09 7f3b cbc4 a03a 7104 e73b
000003f0: 3846 15bc e957 5cbc 50f1 72bc e302 cabb

conv4.bias f4 [64]
-0.031777494 -0.02934685 0.0020924923 0.013299269 0.029641956 -0.024651602 -0.014536683 0.027424088
-0.016754601 0.02769103 -0.024608547 -0.013079854 0.025959278 -0.014419458 0.0014974534 -0.022296954
-0.03498954 -0.006938013 -0.00022872121 -0.02565444 0.014721621 0.02924853 -0.0076623457 0.032830648
0.008610435 0.0049124337 -0.00971465 -0.026448317 -0.024762599 -0.005244304 0.03433862 0.016143385
-0.036166273 0.038727805 -0.0063567106 -0.006527969 0.034949336 0.015795812 -0.036369972 0.018691765
0.03383255 0.005688094 0.00611255 -0.037641257 -0.01625679 0.019908512 0.005220035 -0.0067056143
-0.023825066 0.019308858 -0.037924066 -0.0046624006 0.0016969377 -0.022808725 -0.009200453 0.037544046
0.022249928 -0.02007766 -0.0223747 -0.03471836 -0.004623165 -0.015245969 0.022483962 0.036522746
00000000: 1e29 02bd ce68 f0bc 3222 093b 2de5 593c
00000010: b0d3 f23c 28f2 c9bc 452b 6ebc 7ba8 e03c
00000020: f240 89bc 4dd8 e23c dd97 c9bc e24c 56bc
00000030: 8da8 d43c 973f 6cbc 3346 c43a 1aa8 b6bc
00000040: 3151 0fbd 4558 e3bb e2d4 6fb9 4329 d2bc
00000050: f432 713c 9d9a ef3c 6a14 fbbb 6e79 063d
00000060: c812 0d3c 7bf8 a03b 322a 1fbc 24aa d8bc
00000070: efda cabc 69d8 abbb a7a6 0c3d 223f 843c
00000080: 1623 14bd 0ca1 1e3d f44b d0bb 93e8 d5bb
00000090: 0927 0f3d 3866 813c aef8 14bd 791f 993c
000000a0: 0094 0a3d 3163 ba3b c94b c83b b82d 1abd
000000b0: f62c 85bc 2d17 a33c d40c ab3b c5ba dbbb
000000c0: c92c c3bc 9c2d 9e3c 4456 1bbd 0dc7 98bb
000000d0: c86b de3a 5dd9 babc 7fbd 16bc c9c7 193d
000000e0: 7b45 b63c e879 a4bc 264b b7bc d734 0ebd
000000f0: eb7d 97bb 3bca 79bc 4930 b83c e098 153d

classifier.weight f4 [1, 64, 3, 3]
0.01124083 0.0021954319 -0.024379786 0.04320162 -0.031651735 -0.0040548523 0.017643813 0.03166486
-0.02500659 -0.008303091 0.025469368 -0.02990057 0.02392353 -0.028864885 0.030661605 0.044139497
0.01724667 0.027380213 -0.018880604 0.0011422989 0.04474246 0.04267423 0.028413698 0.03819775
0.01862176 0.02761845 0.020705413 0.02460757 0.03963272 0.032702103 0.010813039 -0.021465467
-0.010745697 -0.01599941 0.011943681 0.026904272 0.0006081803 0.015818378 -0.024279753 -0.009257937
0.0151235415 0.0340873 -0.019018 -0.03163773 -0.02306807 -0.035129018 0.0072211022 0.041747335
-0.0035892304 0.03727899 0.015428531 0.040598188 -0.028535172 -0.036106046 0.013569178 0.0123531055
0.030376015 0.026613565 -0.003552992 0.02626154 -0.017975472 -0.0017776235 0.044196673 0.041263275
0.015341326 -0.029922662 0.027608074 -0.026385289 -0.0048293355 -0.004087122 0.029411899 0.003664859
0.013278357 0.0042962963 0.009634509 0.018740747 0.023850491 0.003822291 0.044010483 -0.0029827058
-0.035442818 0.035162166 -0.03230531 0.010207323 -0.01766622 0.045115527 0.0263472 0.03823646
0.021308532 -0.025395222 -0.03068309 -0.010299244 -0.00339226 0.025234386 -0.011014695 0.018187441
0.007835362 -0.0121999495 0.015198444 -0.030744474 0.036792815 -0.029925013 0.021301404 -0.024213135
0.021440601 0.03886576 0.02702225 -0.024391685 -0.014223977 -0.010025027 0.027451983 0.009478014
0.0076353326 -0.018086592 -0.0055178395 0.0029850309 -0.03292801 -0.013537684 -0.022121964 -0.034446146
0.018972047 -0.012874428 0.0070842723 -0.0035662616 0.019368492 -0.015135292 0.0014153423 0.0019162144
0.02213157 0.04688743 0.0415144 0.035759382 0.0035101732 -0.01743385 -0.008766004 -0.011802497
0.034472298 0.016164426 -0.011541844 0.0036361632 0.029965514 -0.0025671818 -0.031668484 -0.018571597
-0.018724527 -0.008071309 0.04541175 -0.006729275 -0.016117966 0.0048106858 0.013570271 0.025865411
0.017235557 -0.01730572 -0.020683667 -0.0010381539 -0.025985818 0.005683975 -0.013741644 -0.011691495
-0.03228728 0.030642439 -0.020320572 0.0016081514 0.035619326 -0.014575393 0.03417998 -0.008457331
0.009688621 0.034105204 -0.015426068 -0.018934855 0.011586129 -0.038847867 -0.025203478 0.0053051123
-0.019799953 -0.005066204 0.02552642 -0.010612362 0.001833925 0.0010025385 0.02785244 0.016014263
-0.03356307 0.037626944 0.021211363 -0.025371594 0.028288 -0.00815563 0.0035152202 0.041449897
-0.02443168 0.03263703 0.00426652 -0.011748697 0.038935345 -0.031519007 -0.008864164 0.00635831
-0.0025638614 -0.012383602 0.029100427 -0.02974351 0.041222375 0.008743573 0.045037463 -0.027896581
-0.016991343 0.023329686 -0.018578447 0.014830558 0.0005807881 -0.020087866 -0.009645174 -0.023372978
-0.032520864 0.006966045 -0.012918214 -0.032494668 -0.027444808 -0.026907634 -0.0012228786 -0.030747913
0.035790764 0.024086356 -0.028372684 -0.019702697 -0.002647404 0.029516682 0.03677283 -0.015841795
0.00912675 -0.010372019 0.045595963 0.0009071821 0.0124708405 -0.0089471685 0.04769259 -0.008172732
0.004766913 0.017177364 -0.008732693 0.038011163 0.04512656 0.036579147 0.011020561 -0.020886647
0.03261025 -0.01678362 -0.028354056 -0.032975882 0.035834983 0.031664215 -0.032469455 0.0038517674
00000000: 752b 383c 3ce1 0f3b 1eb8 c7bc 2ff4 303d
00000010: 40a5 01bd 91de 84bb c289 903c 03b3 013d
00000020: 9fda ccbc b009 08bc 23a5 d03c 0af2 f4bc
00000030: 47fb c33c 0d76 ecbc 0c2e fb3c 9ecb 343d
00000040: e348 8d3c 784c e03c 7fab 9abc 31b9 953a
00000050: df43 373d 2ccb 2e3d d8c3 e83c 3e75 1c3d
00000060: a98c 983c 1640 e23c 669e a93c d195 c93c
00000070: eb55 223d a4f2 053d 2c29 313c 59d8 afbc
00000080: b80e 30bc 3211 83bc 6eaf 433c 5966 dc3c
00000090: 4a6e 1f3a 8b95 813c 55e6 c6bc 9aae 17bc
000000a0: bbc8 773c 209f 0b3d a3cb 9bbc 9096 01bd
000000b0: 40f9 bcbc 72e3 0fbd ff9e ec3b 41ff 2a3d
000000c0: 4b39 6bbb dbb1 183d f3c7 7c3c 494a 263d
000000d0: 98c2 e9bc efe3 13bd 4251 5e3c ae64 4a3c
000000e0: 1fd7 f83c b104 da3c 50d9 68bb 7122 d73c
000000f0: 4c41 93bc 26ff e8ba 9207 353d ae03 293d
00000100: 2f5a 7b3c 5f20 f5bc 542a e23c f625 d8bc
00000110: 673f 9ebb 44ed 85bb 39f1 f03c 222e 703b
00000120: 778d 593c f2c7 8c3b 0fda 1d3c 3286 993c
00000130: 1b62 c33c 677f 7a3b 5644 343d 8079 43bb
00000140: 7d2c 11bd 3406 103d 9352 04bd 9e3c 273c
00000150: c0b8 90bc 0fcb 383d 15d6 d73c d69d 1c3d
00000160: 3b8f ae3c a409 d0bc 1b5b fbbc 29be 28bc
00000170: ae50 5ebb 58b8 ce3c fb76 34bc d4fd 943c
00000180: e45f 003c 4ce2 47bc e502 793c d6db fbbc
00000190: 10b4 163d 4d25 f5bc 4880 ae3c a05a c6bc
000001a0: 33a4 af3c b431 1f3d c45d dd3c 12d1 c7bc
000001b0: af0b 69bc 0340 24bc fbe2 e03c ac49 1b3c
000001c0: d031 fa3b 552a 94bc fece b4bb 82a0 433b
000001d0: 85df 06bd 2acd 5dbc 1f39 b5bc 6717 0dbd
000001e0: 446b 9b3c 44ef 52bc 2f23 e83b f1b7 69bb
000001f0: acaa 9e3c 04fa 77bc 0283 b93a 7c29 fb3a
00000200: 444d b53c 090d 403d 010b 2a3d 6e78 123d
00000210: ef0a 663b 6fd1 8ebc 499f 0fbc 435f 41bc
00000220: d332 0d3d 426b 843c 011a 3dbc b24c 6e3b
00000230: 3d7a f53c 2a3e 28bb d0b6 01bd 7623 98bc
00000240: 2e64 99bc 863d 04bc ac01 3a3d 4081 dcbb
00000250: d309 84bc f5a2 9d3b d855 5e3c b3e3 d33c
00000260: 9531 8d3c bac4 8dbc cb70 a9bc aa12 88ba
00000270: 36e0 d4bc a340 ba3b a224 61bc af8d 3fbc
00000280: ab3f 04bd da05 fb3c 5477 a6bc 9bc8 d23a
00000290: 92e5 113d a1cd 6ebc 4f00 0c3d 9e90 0abc
000002a0: 06bd 1e3c e6b1 0b3d 9ebd 7cbc 451d 9bbc
000002b0: bfd3 3d3c f11e 1fbd 8677 cebc 82d6 ad3b
000002c0: 8333 a2bc 6602 a6bb c81c d13c 79df 2dbc
000002d0: 5060 f03a 9c67 833a cd2a e43c 5830 833c
000002e0: 6e79 09bd b61e 1a3d 74c3 ad3c 17d8 cfbc
000002f0: 3cbc e73c 319f 05bc 9c5f 663b 5ec7 293d
00000300: f224 c8bc 68ae 053d 2ace 8b3b 9b7d 40bc
00000310: ab7a 1f3d 131a 01bd 003b 11bc 5f59 d03b
00000320: 7506 28bb 97e4 4abc 0564 ee3c a9a8 f3bc
00000330: cbd8 283d 3441 0f3c 3479 383d 5f87 e4bc
00000340: 6e31 8bbc e61d bf3c d431 98bc defb 723c
00000350: 0840 183a 4f8f a4bc cb06 1ebc b078 bfbc
00000360: 9934 05bd 6c43 e43b eba6 53bc 2119 05bd
00000370: efd3 e0bc 666d dcbc ff48 a0ba 0ce3 fbbc
00000380: 5699 123d c050 c53c d56d e8bc 8d67 a1bc
00000390: 1280 2dbb f8cc f13c 1b9f 163d a7c6 81bc
000003a0: 5d88 153c 67ef 29bc d5c2 3a3d f6cf 6d3a
000003b0: 7f52 4c3c 2597 12bc 4e59 433d ece6 05bc
000003c0: c433 9c3b 8bb7 8c3c 9213 0fbc 98b1 1b3d
000003d0: a1d6 383d 04d4 153d 958f 343c 791a abbc
000003e0: 5392 053d cd7d 89bc c446 e8bc b811 07bd
000003f0: b4c7 123d 56b2 013d b1fe 04bd ef6d 7c3b

bn1.weight f4 [64]
0.99825877 1.0022558 0.99584866 1.004577 1.0000643 1.0029215 1.0005167 0.99055785
0.9963718 1.0063418 1.0004628 1.0012482 0.9988091 0.99812627 0.99890465 1.0004525
0.99735165 0.99507886 0.99848807 0.9964109 1.0014945 1.0000036 0.9987479 0.99780226
1.0008825 1.0009518 0.996115 1.0048738 0.9996446 1.0044155 0.99703825 1.0000064
0.99885845 1.0031817 0.998235 1.0014001 1.0008085 0.9967211 1.0022591 0.99286604
0.9964549 0.9992538 1.0000796 1.000724 0.99981916 0.99978447 1.0013558 1.0001729
1.0016805 1.0057998 0.9998416 1.003902 0.9952292 0.99561703 1.0013113 0.99804217
1.0004243 0.9982703 0.9993439 0.9997516 0.99760103 1.0012721 0.9975597 1.000164
00000000: e38d 7f3f eb49 803f f0ef 7e3f fb95 803f
00000010: 1b02 803f bb5f 803f ee10 803f 3395 7d3f
00000020: 3912 7f3f cfcf 803f 2a0f 803f e728 803f
00000030: f4b1 7f3f 3485 7f3f 37b8 7f3f d40e 803f
00000040: 7052 7f3f 7dbd 7e3f ea9c 7f3f c914 7f3f
00000050: f930 803f 1e00 803f f1ad 7f3f f86f 7f3f
00000060: eb1c 803f 301f 803f 6501 7f3f b49f 803f
00000070: b5e8 7f3f b090 803f e63d 7f3f 3600 803f
00000080: 30b5 7f3f 4268 803f 548c 7f3f e12d 803f
00000090: 7e1a 803f 1d29 7f3f 074a 803f 782c 7e3f
000000a0: ab17 7f3f 19cf 7f3f 9c02 803f b917 803f
000000b0: 26f4 7f3f e0f1 7f3f 6d2c 803f aa05 803f
000000c0: 1137 803f 0cbe 803f 9ef5 7f3f dc7f 803f
000000d0: 57c7 7e3f c2e0 7e3f f82a 803f b17f 7f3f
000000e0: e70d 803f a48e 7f3f 00d5 7f3f b9ef 7f3f
000000f0: c862 7f3f af29 803f 1360 7f3f 6005 803f

bn1.bias f4 [64]
0.00020382133 0.0020536885 -0.0024108684 -0.008792536 -0.0037164239 0.0027204829 0.0018283542 -0.0020420728
0.0005097454 0.0029260383 -0.0002148822 0.0019105203 -0.002507244 -0.00028285634 -0.0035107662 0.0016918211
-0.0016974217 -0.00779599 -0.0038550654 -0.0011724423 0.003652288 0.0022116709 -0.0033215529 -0.0016679753
-0.001888735 -0.003035317 0.0012641891 0.0050719376 -0.00043281322 0.0045225983 -0.0021058682 0.0014519583
-0.0022176707 0.0039748875 -0.0029167712 -0.009908592 -0.0017663299 0.0025662656 0.0043163416 -0.0052485703
-0.0005577736 0.0010179002 -0.001987518 0.0017488808 -0.0038369817 -0.002619491 0.0039132275 0.0016008106
0.0024009913 0.0046421057 -0.00047634388 0.004386556 -0.0037395011 -0.0054023564 0.0028308993 0.0019127702
-0.0077864304 -0.0041981707 -0.0019520902 0.00078362593 -0.0014822088 0.00027096865 -0.0015584694 -0.0027940993
00000000: dfb8 5539 2d97 063b a9ff 1dbb 920e 10bc
00000010: 3f8f 73bb 214a 323b 63a5 ef3a 4cd4 05bb
00000020: 6fa0 053a c7c2 3f3b 0052 61b9 6c6a fa3a
00000030: 9350 24bb 564c 94b9 e214 66bb 19c0 dd3a
00000040: 057c deba 8175 ffbb 44a5 7cbb a3ac 99ba
00000050: 3a5b 6f3b aef1 103b 69ae 59bb f79f daba
00000060: 6e8f f7ba 2bec 46bb 26b3 a53a 7f32 a63b
00000070: 35eb e2b9 4e32 943b 9b02 0abb a34f be3a
00000080: 5756 11bb c63f 823b 4d27 3fbb a657 22bc
00000090: 3284 e7ba cb2e 283b 1970 8d3b 33fc abbb
000000a0: 8d37 12ba 106b 853a 0541 02bb b43a e53a
000000b0: df75 7bbb c4ab 2bbb 883a 803b 4ad2 d13a
000000c0: f359 1d3b ce1c 983b cbbd f9b9 19bd 8f3b
000000d0: 6b12 75bb 4006 b1bb 9c86 393b ebb5 fa3a
000000e0: 5025 ffbb cf90 89bb 47dd ffba 3f6c 4d3a
000000f0: ad46 c2ba cc10 8e39 8e45 ccba 351d 37bb

bn1.running_mean f4 [64]
-0.025523778 -0.098430224 0.085357055 -0.01078412 -0.17224278 0.1954071 0.011616168 0.034672137
0.15066786 0.03757162 0.11139678 -0.17980978 -0.104242735 0.014194586 -0.008401665 -0.04581202
-0.01009632 0.14179738 -0.033225995 -0.014548809 0.0737185 -0.05443354 0.12597315 -0.21565609
-0.1790197 -0.15791036 0.0050236266 -0.20531102 0.13713033 -0.17062233 0.074996606 -0.20398144
0.011556345 0.16539422 -0.12552302 -0.008063673 -0.07211677 0.0109236 0.22367652 0.057014987
0.14110734 0.11660056 0.018811267 -0.07882282 -0.09845258 -0.1444628 -0.22975647 0.052598007
-0.10370593 -0.19979155 0.037949268 0.1856491 -0.032124333 -0.06284773 0.08632728 0.04500819
0.11153151 0.024704952 0.029314704 0.030286418 0.055249218 -0.009833262 0.032245737 0.17086989
00000000: 3e17 d1bc c995 c9bd aecf ae3d e1af 30bc
00000010: 6960 30be cc18 483e bd51 3e3c 5f04 0e3d
00000020: ad48 1a3e b3e4 193d ff23 e43d 0e20 38be
00000030: 377d d5bd 6990 683c 23a7 09bc 62a5 3bbd
00000040: 096b 25bc 5533 113e fb17 08bd 215e 6ebc
00000050: baf9 963d b4f5 5ebd 1bff 003e f3d4 5cbe
00000060: f150 37be 41b3 21be 3c9d a43b 0d3d 52be
00000070: e56b 0c3e 9fb7 2ebe d297 993d 83e0 50be
00000080: d356 3d3c 1a5d 293e 1b89 00be 7f1d 04bc
00000090: f5b1 93bd e6f8 323c 750b 653e 8c88 693d
000000a0: 717e 103e 46cc ee3d 161a 9a3c dc6d a1bd
000000b0: 82a1 c9bd 0eee 13be 4845 6bbe 0271 573d
000000c0: c663 d4bd 2896 4cbe b170 1b3d cc1a 3e3e
000000d0: ce94 03bd 50b6 80bd 5bcc b03d 825a 383d
000000e0: a26a e43d 0a62 ca3c 6425 f03c 391b f83c
000000f0: 014d 623d b11b 21bc 1b14 043d 84f8 2e3e

bn1.running_var f4 [64]
0.0403931 0.053152528 0.10596432 0.1328624 0.058535118 0.19521604 0.42790037 0.034283686
0.16379647 0.025190486 0.3497313 0.51094323 0.2071701 0.33076856 0.021944115 0.88791496
0.08366063 0.041847274 0.5475694 0.22745194 0.30651668 0.27458555 0.59790266 2.3910246
1.3683437 0.19126135 0.19671375 0.11422519 0.18096974 0.10367006 0.30197665 0.53654444
0.21284926 0.077133 0.5955779 0.07459043 0.84285754 0.18996097 0.052969612 0.15788755
0.044036195 0.30205193 0.7314878 0.09835673 0.7497271 0.21100299 0.0885962 0.25120276
0.09506661 0.04388224 0.11700691 0.24369867 0.19076876 0.33556676 0.1643885 0.2826273
0.072125696 0.265129 0.309759 0.54526734 0.032874595 0.4389585 0.4567297 0.16216815
00000000: 3c73 253d 77b6 593d d203 d93d 150d 083e
00000010: 85c2 6f3d b7e6 473e c215 db3e 0d6d 0c3d
00000020: 43ba 273e 475c ce3c fb0f b33e 2dcd 023f
00000030: 6624 543e 7f5a a93e 25c4 b33c 654e 633f
00000040: 4456 ab3d 0c68 2b3d 822d 0c3f 29e9 683e
00000050: c1ef 9c3e 7a96 8c3e 2610 193f 8c06 1940
00000060: e325 af3f 04da 433e 546f 493e e5ee e93d
00000070: 2250 393e f850 d43d af9c 9a3e fa5a 093f
00000080: 28f5 593e e8f7 9d3d cb77 183f dec2 983d
00000090: 83c5 573f 2185 423e aaf6 583d 46ad 213e
000000a0: 4c5f 343d 8da6 9a3e c942 3b3f 416f c93d
000000b0: 1dee 3f3f 2b11 583e ed71 b53d a69d 803e
000000c0: 48b2 c23d ddbd 333d 52a1 ef3d 258c 793e
000000d0: e358 433e 68cf ab3e 7555 283e 87b4 903e
000000e0: a3b6 933d fdbe 873e bb98 9e3e a496 0b3f
000000f0: 83a7 063d 2bbf e03e 7ad8 e93e 680f 263e

bn2.weight f4 [64]
0.99754333 1.0001917 1.0062798 0.9997199 0.9995869 0.99911004 0.9981421 0.99844944
1.0066363 0.9985043 0.9995811 0.9981734 0.9991403 0.99775124 1.0015514 0.999998
0.9956526 0.9972296 1.0036168 1.0000261 0.99644226 0.99847955 0.9975235 0.9945983
0.99903184 0.9973384 0.9992265 1.0016522 0.9975928 0.9990119 0.9981077 1.0064023
1.0000472 0.99818856 0.9971391 0.9999859 1.0036651 0.99955636 0.9960233 1.003378
0.998257 0.99736035 1.0029138 0.9947135 0.99634933 0.9966522 0.99987733 0.9984682
0.99857444 0.9994814 0.9994917 0.9978958 1.0039285 1.003647 1.0017787 0.9961824
1.0020846 0.99875647 0.9972307 1.0026119 0.9986906 1.001011 0.9995291 0.99657017
00000000: 005f 7f3f 4806 803f c7cd 803f a5ed 7f3f
00000010: ede4 7f3f adc5 7f3f 3e86 7f3f 629a 7f3f
00000020: 75d9 803f fa9d 7f3f 8ce4 7f3f 4b88 7f3f
00000030: a9c7 7f3f a06c 7f3f d632 803f deff 7f3f
00000040: 17e3 7e3f 704a 7f3f 8476 803f db00 803f
00000050: d716 7f3f 5b9c 7f3f b35d 7f3f ff9d 7e3f
00000060: 8dc0 7f3f 9251 7f3f 4fcd 7f3f 2436 803f
00000070: 3e62 7f3f 3ebf 7f3f fc83 7f3f cad1 803f
00000080: 8c01 803f 4989 7f3f 8244 7f3f 13ff 7f3f
00000090: 1978 803f ede2 7f3f 62fb 7e3f b16e 803f
000000a0: c58d 7f3f 0253 7f3f 7b5f 803f 8ba5 7e3f
000000b0: c010 7f3f 9924 7f3f f6f7 7f3f 9d9b 7f3f
000000c0: 93a2 7f3f 03de 7f3f b0de 7f3f 1976 7f3f
000000d0: bb80 803f 8177 803f 493a 803f cf05 7f3f
000000e0: 4f44 803f 81ae 7f3f 834a 7f3f 9655 803f
000000f0: 30aa 7f3f 2121 803f 24e1 7f3f 391f 7f3f

bn2.bias f4 [64]
-0.0014885564 0.0011371601 0.004293967 0.0019084197 -0.0022472925 -0.00029043594 -0.0054071927 -0.0022743295
0.004804595 -0.0011804071 0.00019910908 -0.0033403083 -0.001707433 -0.004163075 -0.00071654405 -0.0021284937
-0.006193816 -0.0072590914 0.0039437166 0.0008722635 -0.0038578324 -0.008610247 -0.0013839593 -0.002977514
-0.0052009174 -0.00054400973 -0.007346932 1.363105e-05 -0.0010030243 -0.00024839817 -0.0006927704 -0.0032836597
-0.0011459874 -0.003393642 -0.002949356 -0.0001240285 0.004016655 -0.0008501832 0.00074810145 -0.0022773144
-0.0011269224 -0.00031856148 0.0019041247 -0.0011356345 -0.0011394594 -0.0017092746 0.0007451498 0.0010823744
-4.248387e-05 0.0013251698 -0.00083868456 -0.0021660551 0.003363914 -0.0045726546 0.0037060427 -0.0013092463
0.00033450237 -0.0022859918 -0.0044413186 0.0018339875 -0.0014387391 -0.00032763503 -4.6129135e-05 -0.0035169283
00000000: aa1b c3ba c30c 953a 68b4 8c3b f023 fa3a
00000010: 5047 13bb a745 98b9 d22e b1bb eb0c 15bb
00000020: dd6f 9d3b e4b7 9aba f0c7 5039 13e9 5abb
00000030: f2cb dfba 676a 88bb 75d6 3bba 337e 0bbb
00000040: 7ff5 cabb acdd edbb 4b3a 813b 9da8 643a
00000050: b0d3 7cbb fe11 0dbc f865 b5ba 6522 43bb
00000060: 756c aabb e09b 0eba 88be f0bb eab0 6437
00000070: e977 83ba 703b 82b9 099b 35ba ab32 57bb
00000080: f534 96ba dd67 5ebb fc49 41bb a60d 02b9
00000090: 259e 833b d4de 5eba 3d1c 443a ff3e 15bb
000000a0: 3eb5 93ba 9904 a7b9 d393 f93a 92d9 94ba
000000b0: ea59 95ba bd09 e0ba 2856 433a 75de 8d3a
000000c0: b530 32b8 52b1 ad3a 2bdb 5bba 60f4 0dbb
000000d0: 1d75 5c3b 35d6 95bb 14e1 723b 049b abba
000000e0: 2660 af39 94d0 15bb 7b88 91bb 6962 f03a
000000f0: 1394 bcba 6ec6 abb9 c87a 41b8 447c 66bb

bn2.running_mean f4 [64]
-0.1626758 0.19066179 -0.104514405 0.06689635 0.24460274 -0.13100368 0.11783066 -0.058190763
-0.16450322 -0.07943309 0.30911902 0.19592369 0.5350994 0.058840945 0.01851146 0.14175656
0.06671341 0.19054915 0.058505524 -0.28960818 0.36208552 0.012014352 -0.1840754 -0.22686026
0.29096735 -0.37991437 0.22904919 0.25037876 0.019600797 0.066528276 -0.15527947 -0.017074008
0.20483455 -0.086206906 -0.040153325 0.016583635 -0.1802465 0.124225594 -0.4381463 0.1949369
-0.038475294 -0.46376142 0.2055717 -0.34060562 -0.3788414 0.016013294 0.08926673 -0.413257
-0.253438 -0.21403308 0.223968 -0.19034147 -0.10009913 0.25920412 0.07500152 -0.072668046
0.4455828 0.20154943 -0.16907953 0.0063025975 -0.28695333 0.5086721 0.058080234 -0.046869878
00000000: 7c94 26be d83c 433e a60b d6bd f400 893d
00000010: 2479 7a3e d425 06be 3351 f13d 7059 6ebd
00000020: 8873 28be d1ad a2bd d944 9e3e 38a0 483e
00000030: 46fc 083f 3403 713d 58a5 973c a228 113e
00000040: 0aa1 883d 511f 433e 7da3 6f3d 8647 94be
00000050: 4663 b93e d8d7 443c 437e 3cbe 0e4e 68be
00000060: acf9 943e 2384 c2be df8b 6a3e a531 803e
00000070: da91 a03c fa3f 883d 9501 1fbe cade 8bbc
00000080: 26c0 513e 3f8d b0bd d077 24bd 67da 873c
00000090: 8a92 38be fd69 fe3d b654 e0be 8a9d 473e
000000a0: 4598 1dbd 2372 edbe 6381 523e dc63 aebe
000000b0: 80f7 c1be 502e 833c 7ad1 b63d 6c96 d3be
000000c0: a0c2 81be 7d2b 5bbe de57 653e e0e8 42be
000000d0: c600 cdbd 67b6 843e 669a 993d fcd2 94bd
000000e0: 6e23 e43e f962 4e3e 2f23 2dbe 0586 ce3b
000000f0: 8ceb 92be 5638 023f 8ae5 6d3d a1fa 3fbd
